…
[#] Found the ckpt ===> ../model_checkpoints//CVPR_Week3_TracknetV1/dt_dt_rh_uv0_ref0_lrelu_bigger/dt_dt_rh_uv0_ref0_lrelu_bigger_best_traj_ma.pth
Module ===> flag.....Loaded!!!
Module ===> height.....Loaded!!!
Module ===> refinement.....Loaded!!!
[#]Model Architecture
####### Model - flag #######
Flag_Module(
  (rnn): Trainable_LSTM(
    (ls): Sequential(
      (0): LSTM(4, 128, batch_first=True, bidirectional=True)
      (1): LSTM(256, 128, batch_first=True, bidirectional=True)
      (2): LSTM(256, 128, batch_first=True, bidirectional=True)
    )
  )
  (mlp): Vanilla_MLP(
    (activation): LeakyReLU(negative_slope=0.01)
    (seq1): Sequential(
      (0): Linear(in_features=256, out_features=64, bias=True)
      (1): LeakyReLU(negative_slope=0.01)
      (2): Linear(in_features=64, out_features=64, bias=True)
      (3): LeakyReLU(negative_slope=0.01)
      (4): Linear(in_features=64, out_features=64, bias=True)
      (5): LeakyReLU(negative_slope=0.01)
      (6): Linear(in_features=64, out_features=1, bias=True)
    )
  )
  (sigmoid): Sigmoid()
)
####### Model - height #######
Height_Module(
  (rnn): Trainable_LSTM(
    (ls): Sequential(
      (0): LSTM(5, 128, batch_first=True, bidirectional=True)
      (1): LSTM(256, 128, batch_first=True, bidirectional=True)
      (2): LSTM(256, 128, batch_first=True, bidirectional=True)
    )
  )
  (mlp): Vanilla_MLP(
    (activation): LeakyReLU(negative_slope=0.01)
    (seq1): Sequential(
      (0): Linear(in_features=256, out_features=64, bias=True)
      (1): LeakyReLU(negative_slope=0.01)
      (2): Linear(in_features=64, out_features=64, bias=True)
      (3): LeakyReLU(negative_slope=0.01)
      (4): Linear(in_features=64, out_features=64, bias=True)
      (5): LeakyReLU(negative_slope=0.01)
      (6): Linear(in_features=64, out_features=1, bias=True)
    )
  )
)
####### Model - refinement #######
Refinement_Module(
  (rnn): Trainable_LSTM(
    (ls): Sequential(
      (0): LSTM(1, 128, batch_first=True, bidirectional=True)
      (1): LSTM(256, 128, batch_first=True, bidirectional=True)
      (2): LSTM(256, 128, batch_first=True, bidirectional=True)
    )
  )
  (mlp): Vanilla_MLP(
    (activation): LeakyReLU(negative_slope=0.01)
    (seq1): Sequential(
      (0): Linear(in_features=256, out_features=64, bias=True)
      (1): LeakyReLU(negative_slope=0.01)
      (2): Linear(in_features=64, out_features=64, bias=True)
      (3): LeakyReLU(negative_slope=0.01)
      (4): Linear(in_features=64, out_features=64, bias=True)
      (5): LeakyReLU(negative_slope=0.01)
      (6): Linear(in_features=64, out_features=1, bias=True)
    )
  )
)
[#]Batch-0
****************************************************************************************************
[#]Evaluation Results : "CVPR_Week3_TracknetV1/dt_dt_rh_uv0_ref0_lrelu_bigger"
[#]Data : "../../Public_dataset/Dataset/TrackNet1_Dataset/prep_npy_trimmed/"
****************************************************************************************************
…
