…
[#] Found the ckpt ===> ../model_checkpoints//CVPR_Week5_init_h/intr_hori_vert_uv0_os_agg_noaug_mocap/intr_hori_vert_uv0_os_agg_noaug_mocap_best_traj_ma.pth
Module ===> flag.....Loaded!!!
Module ===> height.....Loaded!!!
Module ===> refinement.....Loaded!!!
[#]Model Architecture
####### Model - flag #######
Flag_Module(
  (rnn): Trainable_LSTM(
    (ls): Sequential(
      (0): LSTM(4, 64, batch_first=True, bidirectional=True)
      (1): LSTM(128, 64, batch_first=True, bidirectional=True)
      (2): LSTM(128, 64, batch_first=True, bidirectional=True)
    )
  )
  (mlp): Vanilla_MLP(
    (activation): LeakyReLU(negative_slope=0.01)
    (seq1): Sequential(
      (0): Linear(in_features=128, out_features=32, bias=True)
      (1): LeakyReLU(negative_slope=0.01)
      (2): Linear(in_features=32, out_features=32, bias=True)
      (3): LeakyReLU(negative_slope=0.01)
      (4): Linear(in_features=32, out_features=32, bias=True)
      (5): LeakyReLU(negative_slope=0.01)
      (6): Linear(in_features=32, out_features=1, bias=True)
    )
  )
  (sigmoid): Sigmoid()
)
####### Model - height #######
Height_Module_Agg(
  (rnn): LSTM_Agg(
    (ls_fw): Sequential(
      (0): LSTMCell(6, 64)
      (1): LSTMCell(64, 64)
      (2): LSTMCell(64, 64)
    )
    (ls_bw): Sequential(
      (0): LSTMCell(6, 64)
      (1): LSTMCell(64, 64)
      (2): LSTMCell(64, 64)
    )
    (mlp_fw): Vanilla_MLP(
      (activation): LeakyReLU(negative_slope=0.01)
      (seq1): Sequential(
        (0): Linear(in_features=64, out_features=32, bias=True)
        (1): LeakyReLU(negative_slope=0.01)
        (2): Linear(in_features=32, out_features=32, bias=True)
        (3): LeakyReLU(negative_slope=0.01)
        (4): Linear(in_features=32, out_features=32, bias=True)
        (5): LeakyReLU(negative_slope=0.01)
        (6): Linear(in_features=32, out_features=1, bias=True)
      )
    )
    (mlp_bw): Vanilla_MLP(
      (activation): LeakyReLU(negative_slope=0.01)
      (seq1): Sequential(
        (0): Linear(in_features=64, out_features=32, bias=True)
        (1): LeakyReLU(negative_slope=0.01)
        (2): Linear(in_features=32, out_features=32, bias=True)
        (3): LeakyReLU(negative_slope=0.01)
        (4): Linear(in_features=32, out_features=32, bias=True)
        (5): LeakyReLU(negative_slope=0.01)
        (6): Linear(in_features=32, out_features=1, bias=True)
      )
    )
  )
  (rnn2): Trainable_LSTM(
    (ls): Sequential(
      (0): LSTM(2, 64, batch_first=True, bidirectional=True)
      (1): LSTM(128, 64, batch_first=True, bidirectional=True)
      (2): LSTM(128, 64, batch_first=True, bidirectional=True)
    )
  )
  (mlp): Vanilla_MLP(
    (activation): LeakyReLU(negative_slope=0.01)
    (seq1): Sequential(
      (0): Linear(in_features=128, out_features=32, bias=True)
      (1): LeakyReLU(negative_slope=0.01)
      (2): Linear(in_features=32, out_features=32, bias=True)
      (3): LeakyReLU(negative_slope=0.01)
      (4): Linear(in_features=32, out_features=32, bias=True)
      (5): LeakyReLU(negative_slope=0.01)
      (6): Linear(in_features=32, out_features=1, bias=True)
    )
  )
)
####### Model - refinement #######
Refinement_Module(
  (rnn): Trainable_LSTM(
    (ls): Sequential(
      (0): LSTM(5, 64, batch_first=True, bidirectional=True)
      (1): LSTM(128, 64, batch_first=True, bidirectional=True)
      (2): LSTM(128, 64, batch_first=True, bidirectional=True)
    )
  )
  (mlp): Vanilla_MLP(
    (activation): LeakyReLU(negative_slope=0.01)
    (seq1): Sequential(
      (0): Linear(in_features=128, out_features=32, bias=True)
      (1): LeakyReLU(negative_slope=0.01)
      (2): Linear(in_features=32, out_features=32, bias=True)
      (3): LeakyReLU(negative_slope=0.01)
      (4): Linear(in_features=32, out_features=32, bias=True)
      (5): LeakyReLU(negative_slope=0.01)
      (6): Linear(in_features=32, out_features=1, bias=True)
    )
  )
)
[#]Batch-0
[#]Batch-1
[#]Batch-2
[#]Batch-3
[#]Batch-4
[#]Batch-5
[#]Batch-6
[#]Batch-7
[#]Batch-8
****************************************************************************************************
[#]Evaluation Results : "CVPR_Week5_init_h/intr_hori_vert_uv0_os_agg_noaug_mocap"
[#]Data : "../../Dataset/Mocap/cont2_eot_uniqE/val_set/"
****************************************************************************************************
…
